assets/hand_sign_model.tflite (tflite, 121008 bytes, 8 tensors)

sequential/dense_1/BiasAdd/ReadVariableOp f4 [256]
0.08889744 -0.025311876 -0.062656246 0.127481 -0.08746222 0.12552042 0.116672896 -0.072403654
0.0013385309 -0.16099432 0.013675199 -0.0878089 -0.08263163 -0.10249722 -0.20686872 0.094566144
0.24741359 0.06949105 0.031154675 -0.06682152 -5.145208e-05 -0.06941167 0.003944356 -0.08235196
0.20373562 0.10619723 -0.016956974 -0.058446728 -0.034002014 0.114599064 0.21800287 0.10137852
0.14725915 -0.044333704 0.028175618 0.037821997 0.13543908 -0.106516875 -0.077231705 -0.31222013
-0.0004917893 0.03932764 -0.028761432 0.15645634 -0.11169044 -0.06064772 -0.060195453 -0.058023077
-0.14254323 0.115428984 -0.014588954 -0.057114683 -0.09621024 0.13221069 -0.14349 -0.09885358
0.08975379 -0.0628233 0.019000249 0.0062262444 0.14401545 0.21203174 0.057065398 0.12125639
-0.011701543 0.021970784 0.21583231 -0.17950854 -0.0036499896 0.0642038 -0.14025158 -0.057658575
-0.015060674 0.05768047 -0.039469853 -0.037048943 -0.14950843 -0.048209406 -0.024403797 0.0643174
0.043495905 0.04714201 0.0053704884 0.031172877 -0.1461888 0.14161289 0.010549297 -0.068567924
0.08078168 0.15635155 0.042207323 -0.081556454 -0.019458093 0.04458754 0.3254151 -0.119638756
-0.12973393 0.09972178 0.14941908 0.010192535 0.05710808 0.053160336 0.059481714 0.085324176
-0.032998905 0.12258282 0.15843207 -0.0034877222 -0.0040523917 -0.10373789 -0.13335094 -0.018610563
-0.012770075 0.060017947 0.17804231 -0.23133975 0.1018839 0.09812296 0.22602887 -0.029767543
-0.11728916 -0.08664279 0.05905255 0.12095118 0.182235 -0.016460637 -0.0762941 -0.022590032
0.032402683 0.23981479 0.13867165 0.05610853 0.10708639 0.22748232 0.018929696 0.12123071
-0.023477735 -0.005942535 -0.14393456 0.03834242 0.07411287 0.25409865 0.103317186 -0.039453298
-0.02255814 -0.10683201 -0.009587474 -0.013997934 0.012198144 -0.23287217 -0.15864326 -0.06890257
0.00573012 -0.11667123 -0.14130637 0.11699873 -0.1560182 -0.15106963 0.20994033 -0.053621247
-0.12868659 -0.022501124 0.0070999474 -0.061591513 0.01044989 0.032703068 -0.028600506 0.0057988
0.014765259 -0.03257416 -0.0763359 0.021094553 0.12753966 -0.0023132025 0.02204386 -0.016191185
-0.07744808 -0.13109782 -0.02206552 0.08930949 -0.17191595 0.07758555 0.035910267 -0.13290186
-0.01779793 -0.08830614 -0.0766468 -0.0058905953 -0.114385046 -0.02580406 -0.040480383 -0.06835512
-0.039295647 0.030733073 0.059953257 -0.076231875 -0.09440116 0.04041697 0.16596465 0.13902816
-0.06956944 -0.089245506 0.16845421 -0.08948077 -0.024609422 -0.16161907 0.14065158 0.24410215
-0.09015664 0.011919217 0.11013636 -0.055716407 0.3381028 -0.16839664 0.22353221 0.081567794
-0.019941965 0.27107853 0.11111418 -0.07588807 -0.13054654 -0.08238455 0.08792884 0.068236984
-0.112531036 -0.07838767 -0.052485123 -0.13682128 0.08348701 0.008443153 0.15370035 0.1709461
-0.016395897 -0.020714795 0.03445888 0.017133828 -0.09263633 -0.02189978 0.08492181 -0.02326628
-0.009513576 0.07396465 -0.014143861 0.1370255 0.02657211 -0.18429305 -0.06274989 0.1722415
0.046347056 0.046716843 -0.10788982 -0.048525568 -0.10855796 -0.085044265 0.119190015 -0.084447466
00000000: dc0f b63d da5a cfbc eb51 80bd 618a 023e
00000010: 641f b3bd 6d88 003e 33f2 ee3d 5e48 94bd
00000020: a571 af3a b2db 24be f10d 603c 27d5 b3bd
00000030: c63a a9bd 10ea d1bd 65d5 53be e5ab c13d
00000040: fd59 7d3e 5351 8e3d 1738 ff3c b9d9 88bd
00000050: 40ce 57b8 b527 8ebd a83f 813b 25a8 a8bd
00000060: 12a0 503e ef7d d93d 5ae9 8abc d665 6fbd
00000070: b245 0bbd eab2 ea3d 253c 5f3e 8b9f cf3d
00000080: 1acb 163e 4297 35bd 8ed0 e63c 3deb 1a3d
00000090: 8bb0 0a3e 8525 dabd a82b 9ebd 51db 9fbe
000000a0: 6ceb 00ba 0516 213d 189d ebbc 1736 203e
000000b0: f5bd e4bd be69 78bd 828f 76bd 9ba9 6dbd
000000c0: daf6 11be 0866 ec3d 8206 6fbc 16f1 69bd
000000d0: e009 c5bd 3d62 073e 0bef 12be bf73 cabd
000000e0: d6d0 b73d 81a9 80bd 69a6 9b3c 8605 cc3b
000000f0: c978 133e d91e 593e 68bd 693d 4555 f83d
00000100: d4b7 3fbc 13fc b33c 2503 5d3e 16d1 37be
00000110: aa34 6fbb 487d 833d 1c9e 0fbe 662b 6cbd
00000120: 0cc1 76bc 5b42 6c3d 24ab 21bd a2c0 17bd
00000130: bd18 19be 3a77 45bd 79ea c7bc d7b8 833d
00000140: c328 323d fb17 413d ecfa af3b 435e ff3c
00000150: 84b2 15be f802 113e f5d6 2c3c 576d 8cbd
00000160: de70 a53d 9f1a 203e 96e1 2c3d 1207 a7bd
00000170: 9466 9fbc 6da1 363d cf9c a63e 2a05 f5bd
00000180: f9d8 04be ef3a cc3d 5101 193e 97fe 263c
00000190: 29ea 693d a7be 593d 19a3 733d 71be ae3d
000001a0: dc29 07bd b40c fb3d 043c 223e 4592 64bb
000001b0: edc9 84bb 8874 d4bd 268d 08be 2e75 98bc
000001c0: 9439 51bc 61d5 753d b950 363e 54e4 6cbe
000001d0: 82a8 d03d b1f4 c83d 1d74 673e 10db f3bc
000001e0: 4d35 f0bd c671 b1bd 16e1 713d 41b5 f73d
000001f0: d09b 3a3e 75d8 86bc 1540 9cbd bb0e b9bc
00000200: adb8 043d 0292 753e f1ff 0d3e 0fd2 653d
00000210: 1c50 db3d 20f1 683e 7312 9b3c ce47 f83d
00000220: 6154 c0bc 99b9 c2bb 9563 13be f10c 1d3d
00000230: 7dc8 973d 3819 823e f697 d33d c899 21bd
00000240: d9cb b8bc beca dabd c814 1dbc 9757 65bc
00000250: b9da 473c 0b76 6ebe 6173 22be ca1c 8dbd
00000260: bbc3 bb3b 53f1 eebd 9eb2 10be 089d ef3d
00000270: 3cc3 1fbe ffb1 1abe 99fa 563e f4a1 5bbd
00000280: 6bc6 03be 4754 b8bc ada6 e83b 6247 7cbd
00000290: 0436 2b3c a7f3 053d 9c4b eabc dc03 be3b
000002a0: fce9 713c 7b6c 05bd ff55 9cbd 7cce ac3c
000002b0: c299 023e 1999 17bb 5395 b43c 60a3 84bc
000002c0: 199d 9ebd 823e 06be c0c2 b4bc e5e7 b63d
000002d0: bc0a 30be 2ce5 9e3d a516 133d 6d17 08be
000002e0: f7cc 91bc d9d9 b4bd fff8 9cbd e505 c1bb
000002f0: b542 eabd 0963 d3bc c2ce 25bd c5fd 8bbd
00000300: 79f4 20bd edc3 fb3c 8c91 753d 751f 9cbd
00000310: 6555 c1bd 448c 253d a3f2 293e 665d 0e3e
00000320: 6c7a 8ebd 59c6 b6bd 437f 2c3e b241 b7bd
00000330: b399 c9bc 787f 25be f806 103e eaf5 793e
00000340: 0ba4 b8bd d248 433c 2c8f e13d e336 64bd
00000350: cf1b ad3e 2b70 2cbe a1e5 643e 040d a73d
00000360: 555d a3bc ceca 8a3e d58f e33d 346b 9bbd
00000370: fead 05be 3bb9 a8bd 0914 b43d d5bf 8b3d
00000380: ac76 e6bd b789 a0bd a4fa 56bd e11a 0cbe
00000390: 3dfb aa3d 2755 0a3c a063 1d3e 7f0c 2f3e
000003a0: b050 86bc 13b2 a9bc c124 0d3d 3e5c 8c3c
000003b0: 1eb8 bdbd 2b67 b3bc 7ceb ad3d ed98 bebc
000003c0: d4de 1bbc c77a 973d a7bb 67bc 6a50 0c3e
000003d0: c1ad d93c 51b7 3cbe 0483 80bd 1360 303e
000003e0: 69d6 3d3d 295a 3f3d 57f5 dcbd bfc2 46bd
000003f0: a353 debd b02b aebd e519 f43d cbf2 acbd

sequential/dense_2/BiasAdd/ReadVariableOp f4 [128]
0.3060471 0.1770042 -0.24405962 0.06606643 0.35191125 -0.11179467 0.17590845 -0.13867408
-0.05351393 0.34553373 0.1757809 0.012415549 -0.03666532 -0.057694566 0.29082376 -0.04996337
-0.093035474 0.2844931 0.31533054 0.20346561 -0.10989843 -0.28039113 -0.0004031196 -0.036608245
-0.005061895 -0.15361327 0.06087426 -0.2595117 0.16172373 -0.22965439 0.21762437 0.16060422
-0.134276 -0.05911864 -0.04151141 0.16035385 -0.24944709 0.08155756 -0.08531685 -0.11854732
0.07039767 -0.003569448 0.16617988 -0.146308 -0.04127649 0.031622328 -0.028082347 -0.14296211
0.02227758 0.11926936 0.031356566 -0.1852369 0.064089745 0.10917303 0.12472652 -0.101452656
-0.021762535 -0.1958656 -0.046603855 0.14667103 0.03472612 -0.076795936 -0.01428955 0.060193278
-0.15736274 0.085708424 0.06827651 -0.19779557 -0.08873657 0.22018553 0.00028169327 -0.05658564
-0.19834392 0.106849276 0.19789866 0.124878414 -0.22609983 -0.23826514 -0.07421994 -0.08487941
-0.088668905 0.25668356 0.06774995 0.31439126 -0.23937552 0.031756736 0.2298336 -0.3892429
0.03434191 0.24385108 -0.04502013 -0.07846097 0.14055973 -0.141706 0.093986265 0.07573498
0.20610847 0.14331897 -0.105418704 -0.10191402 -0.21702352 -0.121833906 -0.043827526 0.022853764
-0.30181763 -0.03151787 -0.24580655 -0.003953171 -0.22119254 -0.0026121254 0.027028501 0.34003276
-0.059665468 -0.16796306 0.20009343 -0.16634384 -0.22708258 -0.18118992 -0.019653408 0.052236263
0.038899943 -0.14182833 0.14918928 0.18205902 -0.03134489 -0.12528346 0.008615904 -0.16069594
00000000: 35b2 9c3e 9740 353e c4ea 79be d64d 873d
00000010: b62d b43e 9bf4 e4bd 5821 343e 9400 0ebe
00000020: 6c31 5bbd cce9 b03e e9ff 333e 966a 4b3c
00000030: 602e 16bd 2351 6cbd dae6 943e 64a6 4cbd
00000040: 6289 bebd 14a9 913e 0173 a13e 4a59 503e
00000050: 6e12 e1bd 6d8f 8fbe cc59 d3b9 87f2 15bd
00000060: 41de a5bb cc4c 1dbe 4a57 793d b8de 84be
00000070: e89a 253e 852a 6bbe ecd8 5e3e 6f75 243e
00000080: a67f 09be 6326 72bd de07 2abd cd33 243e
00000090: 0f6f 7fbe a607 a73d 9aba aebd f0c8 f2bd
000000a0: a72c 903d 66ed 69bb 0f2b 2a3e c4d1 15be
000000b0: 8911 29bd 6a86 013d f30c e6bc a964 12be
000000c0: 797f b63c 7f43 f43d be6f 003d beae 3dbe
000000d0: 7c41 833d 1c96 df3d 9e70 ff3d 69c6 cfbd
000000e0: 5847 b2bc fe90 48be afe3 3ebd ee30 163e
000000f0: fa3c 0e3d 3047 9dbd b71e 6abc 3a8d 763d
00000100: b323 21be e687 af3d 8ed4 8b3d ec8a 4abe
00000110: 85bb b5bd 5178 613e 3bb0 9339 58c6 67bd
00000120: ab1a 4bbe cbd3 da3d f2a5 4a3e 41c0 ff3d
00000130: b786 67be c7fb 73be a000 98bd 42d5 adbd
00000140: 0b98 b5bd 076c 833e 7cc0 8a3d e4f7 a03e
00000150: db1e 75be 5a13 023d 8059 6b3e d84a c7be
00000160: 1aaa 0c3d 19b4 793e 0767 38bd 25b0 a0bd
00000170: e4ee 0f3e 611b 11be df7b c03d f11a 9b3d
00000180: 190e 533e 35c2 123e c3e5 d7bd 4cb8 d0bd
00000190: 6a3b 5ebe 0e84 f9bd 7e84 33bd d137 bb3c
000001a0: d787 9abe e218 01bd b6b4 7bbe 9a89 81bb
000001b0: 4c80 62be 3130 2bbb e06a dd3c c618 ae3e
000001c0: c763 74bd 82fe 2bbe 4be5 4c3e 0a56 2abe
000001d0: 5688 68be da89 39be 2f00 a1bc b1f5 553d
000001e0: 8c55 1f3d 723b 11be 13c5 183e ae6d 3a3e
000001f0: 8063 00bd 4f4a 00be b829 0d3c 7a8d 24be

sequential/dense_3/BiasAdd/ReadVariableOp f4 [10]
-0.008177678 0.29465124 0.11656825 -0.08170383 -0.03672394 -0.2531129 0.12374022 -0.21476303
0.008061268 -0.49790326
00000000: abfb 05bc 87dc 963e 56bb ee3d 5654 a7bd
00000010: d86b 16bd 0498 81be 836b fd3d d7ea 5bbe
00000020: 6913 043c 2ded febe

sequential/dense/BiasAdd/ReadVariableOp f4 [256]
0.0016803932 -0.23726131 -0.18682663 -0.2836155 -0.18176346 -0.1515371 -0.26292685 -0.26216763
-0.00022326561 0.059483927 -0.23748541 -0.1560217 -0.27227056 -0.0018167784 -0.23993239 -0.30776176
-0.17207655 -0.18340355 -0.18672861 -0.10458053 -0.16798766 0.052871246 -0.2425086 0.052392524
-0.17687513 -0.3136051 -0.14093608 -0.108311094 -0.1396725 -0.061471548 -0.21843794 -0.2600171
-0.20907044 -0.27072003 -0.2596093 -0.15608463 0.052638497 -0.2376144 -0.115799084 -0.035869148
-0.13849832 -0.18352106 -0.22950126 -0.3148694 -0.16536622 0.031436127 -0.148692 -0.10112991
0.019366663 0.22168425 -0.02116507 -0.014827505 -0.23244798 -0.10318351 0.024590978 -0.012799384
-0.13275196 -0.21840894 -0.07295399 -0.09441285 0.10320624 0.02896078 -0.13808976 -0.06406665
-0.17250106 -0.15359867 0.13338748 -0.048125092 -0.17719635 -0.067326345 -0.15505765 -0.07350606
-0.21996027 0.024866996 -0.20989314 -0.16303815 -0.085534826 -0.08385769 -0.09325874 -0.18876792
0.046916254 -0.18657012 -0.153708 -0.09993282 -0.017320411 -0.25791883 -0.3122545 -0.16535407
-0.19072072 -0.08336229 -0.11836369 -0.1622404 -0.2039312 -0.2071878 0.022144035 -0.1747923
-0.040377606 0.13098319 -0.26926723 -0.026703898 -0.23895256 0.0003114883 -0.15903823 -0.19575547
0.26603755 -0.11197301 -0.018189091 -0.20286702 -0.22091363 -0.031492148 -0.026217537 -0.052456804
0.040233012 -0.32474464 -0.21210493 -0.13066797 -0.16143475 -0.19010939 -0.125142 -0.13466553
-0.1434247 -0.26425487 -0.11336031 -0.03753779 -0.24711291 -0.13756527 0.024561146 -0.08656322
-0.102272086 -0.31233978 -0.17203096 -0.20405532 -0.16479318 -0.06794512 -0.16665038 -0.009732363
-0.13601753 -0.21785063 -0.36374786 -0.35313734 -0.09902082 -0.088288575 -0.119865775 0.049751885
-0.1836246 0.3237627 -0.29860482 -0.0732063 -0.09904403 0.08809483 -0.09348214 -0.30922943
-0.27333605 -0.13657017 -0.050876662 -0.12308057 0.07982498 -0.11988542 -0.075105734 -0.25386602
-0.021283666 0.020738743 -0.12400947 -0.16222031 -0.19648406 -0.13855241 -0.22146967 -0.024600388
-0.17208607 -0.18962587 -0.20401597 -0.08552448 0.10147459 -0.12914526 0.05663337 -0.13924189
-0.14191283 0.041249674 -0.032376274 -0.09594688 -0.16479038 -0.19081746 -0.28981283 0.060404707
-0.13555296 -0.2007763 -0.101286374 0.017883494 0.11041765 -0.25028846 0.10512985 -0.18127668
-0.097163506 -0.23855898 0.16545287 -0.09628804 -0.19516304 0.01660549 -0.027051792 0.103432246
-0.123238474 0.043258533 -0.08017406 -0.043027706 -0.17821343 -0.22788927 -0.113601275 0.0010976557
-0.16717358 -0.14869148 0.05293306 -0.19582571 -0.11444505 -0.28738728 -0.0139003815 -0.2170295
-0.18941563 -0.072372876 -0.15457608 -0.045058016 0.092839085 -0.172115 -0.19753022 -0.13028339
-0.030622568 -0.03217006 -0.116404004 -0.16939603 -0.02218546 -0.23574519 -0.042927124 -0.26153064
-0.09475197 0.07358526 -0.089233875 -0.13481735 0.041660335 0.124307975 -0.030357515 -0.2585729
-0.28585956 -0.028983599 -0.2282812 -0.1936882 -0.18277186 0.16164425 -0.2696961 0.06763889
0.06943617 -0.10686235 -0.03249453 -0.041123446 -0.09670215 0.15901221 -0.17258558 -0.18641524
00000000: a440 dc3a a1f4 72be 7b4f 3fbe 0d36 91be
00000010: 3320 3abe 8b2c 1bbe 599e 86be d63a 86be
00000020: 681c 6ab9 6ba5 733d 602f 73be 27c4 1fbe
00000030: 0c67 8bbe f820 eeba d6b0 75be f392 9dbe
00000040: d634 30be 24ce 3bbe c935 3fbe 512e d6bd
00000050: f504 2cbe 858f 583d 2d54 78be 8b99 563d
00000060: c11e 35be d990 a0be 8c51 10be 35d2 ddbd
00000070: 4f06 0fbe 97c9 7bbd 32ae 5fbe f620 85be
00000080: 9016 56be d19b 8abe 83eb 84be a6d4 1fbe
00000090: 779b 573d 3051 73be 1228 edbd 87eb 12bd
000000a0: 81d2 0dbe f2ec 3bbe 6102 6bbe 9036 a1be
000000b0: c355 29be 2bc3 003d b742 18be 331d cfbd
000000c0: d6a6 9e3c 3201 633e 5e62 adbc 10ef 72bc
000000d0: d806 6ebe e051 d3bd 0573 c93c 82b4 51bc
000000e0: 21f0 07be 98a6 5fbe e768 95bd 865b c1bd
000000f0: cb5d d33d 283f ed3c 6767 0dbe 6035 83bd
00000100: 1ea4 30be f848 1dbe ba96 083e d11e 45bd
00000110: f672 35be 65e2 89bd 6fc7 1ebe 588a 96bd
00000120: 443d 61be dfb5 cb3c 3aee 56be 79f3 26be
00000130: e22c afbd 95bd abbd 70fe bebd 614c 41be
00000140: 422b 403d 3d0c 3fbe a165 1dbe 94a9 ccbd
00000150: 89e3 8dbc f00d 84be d2df 9fbe 9452 29be
00000160: 4b4c 43be d9b9 aabd aa68 f2bd 5922 26be
00000170: 57d3 50be 0a29 54be 6867 b53c c1fc 32be
00000180: fd62 25bd 7520 063e 65dd 89be 22c2 dabc
00000190: fbaf 74be 404f a339 ebda 22be 1f74 48be
000001a0: 1336 883e 1b52 e5bd 4a01 95bc 5fbc 4fbe
000001b0: 2f37 62be e9fd 00bd 29c6 d6bc f2dc 56bd
000001c0: 5fcb 243d ee44 a6be 0932 59be d3cd 05be
000001d0: 274f 25be 09ac 42be 3925 00be c3e5 09be
000001e0: eddd 12be 6a4c 87be 7329 e8bd 3ac1 19bd
000001f0: 2b0b 7dbe e9dd 0cbe 7534 c93c 0f48 b1bd
00000200: 0774 d1bd 00eb 9fbe e228 30be e1f3 50be
00000210: 8bbf 28be d026 8bbd 66a6 2abe 7d74 1fbc
00000220: 2e48 0bbe 3c14 5fbe 293d babe 6bce b4be
00000230: 6dcb cabd a4d0 b4bd 307c f5bd a2c8 4b3d
00000240: 1608 3cbe 3ac4 a53e bbe2 98be 2fed 95bd
00000250: 99d7 cabd 106b b43d 9073 bfbd 5253 9ebe
00000260: b4f2 8bbe 0dd9 0bbe 0c64 50bd aa11 fcbd
00000270: 477b a33d 7d86 f5bd 09d1 99bd bafa 81be
00000280: 155b aebc 4ce4 a93c adf8 fdbd 151d 26be
00000290: 1e33 49be afe0 0dbe f2c8 62be c186 c9bc
000002a0: 5537 30be 492d 42be 90e9 50be 7527 afbd
000002b0: e9d1 cf3d a83e 04be 65f8 673d 6d95 0ebe
000002c0: 9951 11be 6bf5 283d fc9c 04bd cc7f c4bd
000002d0: cfbe 28be a765 43be 5962 94be ed6a 773d
000002e0: 65ce 0abe 4d98 4dbe 3b6f cfbd 6880 923c
000002f0: a622 e23d cf25 80be 524e d73d 98a0 39be
00000300: a9fd c6bd ce48 74be 7a6c 293e aa32 c5bd
00000310: d2d8 47be 3d08 883c b89b ddbc 49d4 d33d
00000320: 7464 fcbd dc2f 313d 4c32 a4bd d23d 30bd
00000330: 957d 36be ce5b 69be c9a7 e8bd 37df 8f3a
00000340: 8d2f 2bbe 9442 18be 56d0 583d 8986 48be
00000350: 2b62 eabd 6d24 93be 6dbe 63bc fb3c 5ebe
00000360: 2cf6 41be 3b38 94bd 3149 1ebe c18e 38bd
00000370: 6b22 be3d ea3e 30be 5d45 4abe 0269 05be
00000380: 2edc fabc c1c4 03bd 3965 eebd 2776 2dbe
00000390: 48be b5bc 3067 71be 5ad4 2fbd 58e7 85be
000003a0: 520d c2bd deb3 963d 40c0 b6bd 8f0d 0abe
000003b0: 07a4 2a3d 2e95 fe3d 53b0 f8bc ab63 84be
000003c0: 2f5c 92be 036f edbc 8cc2 69be 3356 46be
000003d0: 8c28 3bbe 1286 253e 9b15 8abe 4286 8a3d
000003e0: 8d34 8e3d a6da dabd fc18 05bd 0f71 28bd
000003f0: c70b c6bd 19d4 223e 46ba 30be a3e3 3ebe

sequential/dense/MatMul i1 [256, 63] scale=0.011007333 zero_point=0
0.055036664 0.30820534 0.099066 -0.30820534 0.022014666 0.5833887 -0.27518332 -0.11007333
0.63842535 -0.264176 -0.231154 0.51734465 -0.264176 -0.264176 0.627418 0.0
0.033022 -0.53935933 0.077051334 0.088058665 -0.48432267 -0.055036664 -0.15410267 -0.066044
-0.044029333 -0.15410267 0.20913933 0.022014666 0.17611733 -0.7484987 -0.022014666 -0.066044
-0.4402933 0.044029333 -0.16510999 0.077051334 -0.077051334 -0.20913933 0.044029333 0.231154
0.16510999 -0.48432267 0.18712467 -0.088058665 0.033022 0.0 0.044029333 0.132088
-0.11007333 0.198132 0.45130065 0.37424934 0.22014666 -0.088058665 0.11007333 -0.044029333
-0.011007333 0.22014666 0.088058665 0.14309533 0.18712467 -0.17611733 0.34122732 -0.25316867
0.033022 0.088058665 -0.132088 0.17611733 0.50633734 -0.011007333 0.24216133 0.28619066
0.0 0.38525665 0.297198 -0.12108067 0.31921268 -0.14309533 -0.18712467 -0.088058665
0.53935933 -0.16510999 -0.033022 0.7705133 0.12108067 -0.11007333 0.7374913 0.077051334
-0.132088 0.49533 -0.022014666 -0.27518332 0.891594 -0.033022 -0.011007333 0.462308
-0.077051334 0.12108067 0.14309533 -0.231154 0.30820534 -0.011007333 0.033022 -0.27518332
0.066044 -0.022014666 -0.066044 0.25316867 -0.077051334 0.17611733 0.11007333 0.011007333
0.231154 0.17611733 0.099066 -0.264176 -0.077051334 0.088058665 -0.011007333 -0.15410267
0.20913933 0.0 -0.198132 0.088058665 -0.011007333 -0.25316867 0.044029333 0.011007333
-0.198132 -0.044029333 0.0 0.35223466 0.022014666 0.12108067 0.264176 0.16510999
0.15410267 -0.066044 0.41827866 0.198132 -0.30820534 -0.24216133 -0.077051334 0.462308
0.022014666 -0.044029333 0.297198 -0.099066 -0.099066 0.088058665 0.14309533 0.088058665
0.0 -0.11007333 0.055036664 0.6164107 -0.12108067 -0.077051334 0.31921268 -0.022014666
0.11007333 -0.37424934 0.132088 0.33021998 -0.33021998 -0.14309533 -0.15410267 0.16510999
0.066044 -0.099066 -0.066044 0.044029333 0.099066 0.033022 -0.088058665 0.18712467
-0.15410267 -0.22014666 -0.22014666 -0.077051334 -0.011007333 -0.033022 -0.044029333 -0.022014666
-0.37424934 -0.24216133 0.088058665 -0.45130065 -0.27518332 0.297198 -0.264176 -0.28619066
0.22014666 -0.231154 -0.044029333 0.011007333 -0.033022 0.396264 0.011007333 -0.17611733
0.044029333 0.022014666 -0.16510999 0.12108067 -0.11007333 -0.088058665 0.18712467 -0.088058665
0.022014666 0.20913933 0.0 0.20913933 0.12108067 0.24216133 0.12108067 0.24216133
-0.011007333 0.044029333 -0.41827866 -0.044029333 0.17611733 -0.16510999 -0.099066 0.077051334
0.4402933 -0.18712467 0.20913933 0.27518332 -0.055036664 -0.044029333 0.67144734 -0.066044
0.088058665 0.429286 -0.055036664 0.33021998 0.297198 -0.24216133 0.37424934 0.462308
0.066044 0.022014666 0.429286 0.033022 0.11007333 0.27518332 0.132088 0.20913933
0.35223466 0.12108067 0.24216133 0.47331533 -0.077051334 -0.132088 -0.4402933 -0.022014666
00000000: 051c 09e4 0235 e7f6 3ae8 eb2f e8e8 3900
00000010: 03cf 0708 d4fb f2fa fcf2 1302 10bc fefa
00000020: d804 f107 f9ed 0415 0fd4 11f8 0300 040c
00000030: f612 2922 14f8 0afc ff14 080d 11f0 1fe9
00000040: 0308 f410 2eff 161a 0023 1bf5 1df3 eff8
00000050: 31f1 fd46 0bf6 4307 f42d fee7 51fd ff2a
00000060: f90b 0deb 1cff 03e7 06fe fa17 f910 0a01
00000070: 1510 09e8 f908 fff2 1300 ee08 ffe9 0401
00000080: eefc 0020 020b 180f 0efa 2612 e4ea f92a
00000090: 02fc 1bf7 f708 0d08 00f6 0538 f5f9 1dfe
000000a0: 0ade 0c1e e2f3 f20f 06f7 fa04 0903 f811
000000b0: f2ec ecf9 fffd fcfe deea 08d7 e71b e8e6
000000c0: 14eb fc01 fd24 01f0 0402 f10b f6f8 11f8
000000d0: 0213 0013 0b16 0b16 ff04 dafc 10f1 f707
000000e0: 28ef 1319 fbfc 3dfa 0827 fb1e 1bea 222a
000000f0: 0602 2703 0a19 0c13 200b 162b f9f4 d8fe

sequential/dense_1/MatMul i1 [256, 256] scale=0.0058345078 zero_point=0
-0.093352124 -0.21004228 -0.10502114 0.0058345078 -0.040841553 -0.08751762 -0.093352124 0.1458627
-0.25088385 -0.47842965 0.023338031 -0.064179584 0.10502114 -0.25671834 -0.11669016 0.17503524
-0.37924302 0.0058345078 -0.05251057 -0.12835917 0.093352124 0.017503522 -0.3033944 -0.017503522
0.26255286 0.14002818 0.16920072 -0.16920072 -0.09918663 -0.24504933 0.064179584 0.064179584
0.017503522 -0.24504933 0.02917254 0.19253875 -0.046676062 -0.0116690155 -0.25671834 -0.13419367
0.19837326 -0.1516972 -0.11085565 0.0116690155 -0.05251057 -0.05834508 -0.11669016 -0.3092289
-0.02917254 -0.15753171 -0.40841556 -0.2975599 0.02917254 0.1458627 0.17503524 -0.28589088
-0.0058345078 -0.16920072 0.2917254 0.1516972 -0.05834508 -0.05834508 -0.040841553 0.05251057
-0.18086974 -0.10502114 -0.035007045 0.07001409 0.02917254 -0.040841553 0.02917254 0.13419367
-0.35007048 0.2275458 -0.040841553 -0.20420778 0.0758486 0.17503524 0.093352124 0.16920072
0.18086974 0.13419367 -0.36757398 0.035007045 -0.1516972 0.035007045 -0.2917254 -0.17503524
0.0758486 0.18086974 -0.32089794 -0.0116690155 0.11669016 0.13419367 0.040841553 -0.023338031
-0.23338032 -0.10502114 0.0058345078 -0.15753171 -0.023338031 0.046676062 -0.11669016 0.023338031
-0.42008457 -0.25671834 -0.19253875 -0.017503522 -0.32673243 0.1516972 -0.13419367 -0.07001409
0.035007045 -0.046676062 -0.23338032 0.13419367 0.2217113 0.064179584 -0.26255286 -0.11669016
-0.40841556 0.023338031 0.122524664 -0.0116690155 -0.14002818 -0.16336621 0.11085565 -0.0758486
-0.20420778 0.040841553 -0.017503522 0.0758486 -0.23921482 -0.50760216 0.15753171 0.13419367
0.08168311 -0.122524664 -0.11085565 0.12835917 -0.13419367 0.16920072 0.2217113 -0.2917254
-0.08751762 -0.21587679 -0.13419367 -0.0758486 0.07001409 -0.20420778 -0.040841553 -0.10502114
0.21587679 0.017503522 0.0116690155 0.064179584 -0.11669016 0.12835917 -0.16920072 -0.42591906
-0.046676062 -0.035007045 -0.14002818 -0.122524664 0.18086974 0.0058345078 0.093352124 0.02917254
0.08168311 -0.09918663 -0.17503524 0.13419367 -0.1458627 0.035007045 0.046676062 -0.3092289
0.27422187 -0.0058345078 -0.0116690155 -0.07001409 -0.11085565 -0.07001409 -0.0116690155 -0.32673243
-0.2217113 -0.15753171 -0.040841553 0.0 -0.0758486 -0.040841553 0.1516972 -0.064179584
-0.34423596 -0.14002818 0.0758486 0.07001409 -0.15753171 0.12835917 0.0058345078 -0.47259513
-0.2917254 0.0058345078 -0.08168311 -0.11085565 -0.05834508 0.2275458 0.05834508 0.11085565
0.14002818 0.0758486 -0.0758486 -0.12835917 0.0058345078 0.2275458 -0.09918663 0.18086974
0.08751762 0.11085565 -0.0116690155 0.035007045 -0.21587679 0.25088385 0.064179584 -0.017503522
0.040841553 0.122524664 -0.05834508 0.023338031 0.16336621 0.14002818 0.064179584 -0.1458627
0.11085565 -0.35590497 0.11085565 -0.11085565 -0.2975599 -0.08751762 -0.0758486 -0.0758486
0.035007045 0.2917254 0.11669016 0.26255286 0.15753171 0.08751762 0.05251057 -0.2217113
-0.09918663 -0.33840144 0.21004228 -0.0116690155 -0.16336621 -0.093352124 -0.0758486 -0.24504933
00000000: f0dc ee01 f9f1 f019 d5ae 04f5 12d4 ec1e
00000010: bf01 f7ea 1003 ccfd 2d18 1de3 efd6 0b0b
00000020: 03d6 0521 f8fe d4e9 22e6 ed02 f7f6 eccb
00000030: fbe5 bacd 0519 1ecf ffe3 321a f6f6 f909
00000040: e1ee fa0c 05f9 0517 c427 f9dd 0d1e 101d
00000050: 1f17 c106 e606 cee2 0d1f c9fe 1417 07fc
00000060: d8ee 01e5 fc08 ec04 b8d4 dffd c81a e9f4
00000070: 06f8 d817 260b d3ec ba04 15fe e8e4 13f3
00000080: dd07 fd0d d7a9 1b17 0eeb ed16 e91d 26ce
00000090: f1db e9f3 0cdd f9ee 2503 020b ec16 e3b7
000000a0: f8fa e8eb 1f01 1005 0eef e217 e706 08cb
000000b0: 2fff fef4 edf4 fec8 dae5 f900 f3f9 1af5
000000c0: c5e8 0d0c e516 01af ce01 f2ed f627 0a13
000000d0: 180d f3ea 0127 ef1f 0f13 fe06 db2b 0bfd
000000e0: 0715 f604 1c18 0be7 13c3 13ed cdf1 f3f3
000000f0: 0632 142d 1b0f 09da efc6 24fe e4f0 f3d6

sequential/dense_2/MatMul i1 [128, 256] scale=0.0060733734 zero_point=0
0.13361421 0.0911006 0.0911006 0.01822012 -0.15183434 0.20649469 0.16398108 0.26115507
-0.01822012 -0.19434795 0.05466036 -0.03644024 -0.042513613 -0.024293493 -0.11539409 -0.0911006
0.24293494 0.0911006 -0.3644024 -0.41298938 0.05466036 -0.12146747 -0.01822012 0.21864145
0.10932072 0.13361421 0.097173974 -0.030366868 -0.01822012 0.097173974 -0.012146747 0.16398108
0.030366868 0.0060733734 0.03644024 -0.030366868 0.07288048 -0.024293493 0.20649469 -0.20649469
-0.0911006 0.060733736 0.085027225 -0.07288048 0.01822012 0.085027225 -0.012146747 0.07288048
-0.2975953 0.05466036 -0.17005445 -0.078953855 -0.17612782 0.19434795 -0.103247344 -0.07288048
0.14576095 0.13361421 0.01822012 -0.085027225 -0.1822012 0.12146747 0.0 0.33403555
-0.13361421 0.18827458 0.060733736 0.01822012 -0.012146747 0.11539409 0.07288048 -0.19434795
0.25508168 0.01822012 0.03644024 -0.01822012 -0.16398108 0.03644024 -0.21256807 0.12754084
0.07288048 -0.01822012 -0.15790771 0.060733736 -0.042513613 0.14576095 0.21256807 -0.012146747
0.03644024 0.11539409 -0.0060733734 -0.13968758 -0.15183434 -0.024293493 0.35225564 0.048586987
-0.20042132 -0.13968758 0.16398108 -0.05466036 -0.024293493 0.0911006 0.15183434 0.085027225
-0.05466036 -0.078953855 -0.15790771 -0.103247344 -0.05466036 -0.05466036 -0.20042132 -0.10932072
-0.030366868 0.17005445 -0.024293493 0.012146747 0.28544855 0.085027225 -0.01822012 0.05466036
-0.024293493 -0.07288048 0.03644024 0.13361421 -0.060733736 -0.12754084 0.20649469 -0.078953855
0.07288048 0.10932072 0.042513613 0.048586987 0.103247344 0.22471482 0.042513613 0.17612782
-0.0060733734 0.12754084 -0.0911006 -0.060733736 0.2915219 0.20649469 0.10932072 0.066807106
-0.024293493 -0.042513613 0.066807106 -0.03644024 -0.49801663 -0.03644024 0.26115507 -0.12146747
-0.14576095 -0.25508168 -0.085027225 0.042513613 -0.13968758 -0.16398108 0.35832903 0.097173974
0.012146747 -0.2915219 0.0911006 -0.0060733734 0.0060733734 0.0911006 0.0060733734 0.2975953
0.012146747 -0.39476928 -0.15183434 -0.13361421 0.31581542 -0.060733736 0.103247344 -0.30974203
-0.12754084 -0.2915219 -0.12146747 -0.060733736 -0.12146747 0.085027225 0.12754084 -0.16398108
-0.01822012 0.085027225 -0.14576095 0.12754084 -0.21256807 0.01822012 0.05466036 0.042513613
-0.066807106 -0.024293493 0.066807106 0.048586987 -0.48586988 -0.35832903 0.01822012 0.20042132
0.042513613 0.32188877 -0.024293493 -0.3826225 -0.2733018 0.14576095 0.085027225 0.13968758
-0.097173974 -0.21864145 0.24900831 -0.11539409 0.097173974 -0.042513613 0.103247344 0.26722842
0.030366868 0.24900831 0.0911006 0.097173974 -0.3826225 0.19434795 -0.078953855 0.078953855
-0.10932072 -0.17612782 -0.03644024 -0.15183434 0.13361421 0.2915219 0.11539409 0.17612782
-0.44942963 -0.20042132 -0.0060733734 -0.097173974 0.07288048 0.10932072 0.21256807 0.13361421
0.048586987 -0.048586987 0.10932072 0.12146747 0.103247344 -0.51016337 -0.17612782 0.12754084
-0.078953855 0.066807106 -0.097173974 -0.41298938 -0.042513613 0.042513613 0.30366868 -0.078953855
00000000: 160f 0f03 e722 1b2b fde0 09fa f9fc edf1
00000010: 280f c4bc 09ec fd24 1216 10fb fd10 fe1b
00000020: 0501 06fb 0cfc 22de f10a 0ef4 030e fe0c
00000030: cf09 e4f3 e320 eff4 1816 03f2 e214 0037
00000040: ea1f 0a03 fe13 0ce0 2a03 06fd e506 dd15
00000050: 0cfd e60a f918 23fe 0613 ffe9 e7fc 3a08
00000060: dfe9 1bf7 fc0f 190e f7f3 e6ef f7f7 dfee
00000070: fb1c fc02 2f0e fd09 fcf4 0616 f6eb 22f3
00000080: 0c12 0708 1125 071d ff15 f1f6 3022 120b
00000090: fcf9 0bfa aefa 2bec e8d6 f207 e9e5 3b10
000000a0: 02d0 0fff 010f 0131 02bf e7ea 34f6 11cd
000000b0: ebd0 ecf6 ec0e 15e5 fd0e e815 dd03 0907
000000c0: f5fc 0b08 b0c5 0321 0735 fcc1 d318 0e17
000000d0: f0dc 29ed 10f9 112c 0529 0f10 c120 f30d
000000e0: eee3 fae7 1630 131d b6df fff0 0c12 2316
000000f0: 08f8 1214 11ac e315 f30b f0bc f907 32f3

sequential/dense_3/MatMul i1 [10, 128] scale=0.0075262506 zero_point=0
-0.48920628 0.0 -0.25589252 -0.48168004 -0.23331377 -0.21073502 0.08278876 0.0
0.18063001 -0.51178503 -0.40641752 -0.12042001 0.25589252 0.1354725 -0.2859975 -0.20320876
-0.4741538 -0.045157503 0.1354725 -0.33115503 0.09031501 -0.36126003 0.1354725 0.09031501
-0.24084002 -0.40641752 -0.16557752 0.22578752 0.18815626 0.21073502 0.052683756 -0.43652254
-0.5945738 -0.08278876 0.14299875 -0.4289963 -0.21826127 -0.7601513 0.21826127 0.10536751
-0.20320876 -0.67736256 0.09031501 -0.30105 -0.0752625 -0.37631252 0.17310376 -0.23331377
0.11289376 -0.060210004 -0.270945 -0.11289376 0.14299875 -0.24084002 0.23331377 0.20320876
-0.2859975 -0.31610253 0.21826127 -0.150525 -0.39889127 -0.40641752 -0.19568251 -0.015052501
0.08278876 0.12042001 -0.150525 0.15805127 0.22578752 0.022578752 -0.24836627 0.060210004
-0.21826127 0.23331377 -0.6999413 -0.24084002 0.015052501 -0.24836627 0.21826127 -0.09031501
-0.73004633 0.09031501 -0.63220507 -0.30105 0.015052501 0.09031501 -0.5870475 0.0
0.052683756 -0.33868128 -0.39889127 -0.022578752 -0.66231006 0.150525 -0.12794626 -0.24084002
-0.24836627 0.030105002 -0.015052501 0.015052501 -0.10536751 0.10536751 0.10536751 -0.6171526
0.052683756 -0.51178503 -0.15805127 -0.10536751 0.15805127 -0.08278876 -0.4741538 -0.39889127
0.015052501 0.06773625 0.1354725 -0.26341876 0.24084002 0.19568251 -0.5644688 0.15805127
-0.25589252 -0.10536751 0.052683756 -0.5569425 0.20320876 -0.12042001 -0.6698363 -0.39136502
0.10536751 0.06773625 -0.16557752 0.12794626 -0.015052501 -0.20320876 0.10536751 -0.8579926
-0.12794626 0.17310376 0.150525 0.10536751 -0.060210004 -0.0075262506 0.097841255 0.06773625
-0.42147005 0.19568251 0.09031501 0.16557752 -0.18063001 -0.18063001 -0.15805127 -0.09031501
-0.12042001 -0.5268375 -0.150525 -0.33868128 0.097841255 -0.4289963 0.18815626 0.1354725
-0.270945 -0.34620753 -0.20320876 0.0752625 -0.33115503 0.1354725 -0.24836627 -0.24836627
0.097841255 0.052683756 0.150525 -0.15805127 -0.097841255 -0.41394377 -0.12794626 -0.18063001
-0.40641752 0.0 0.045157503 -0.150525 0.045157503 0.0075262506 -0.19568251 -0.015052501
-0.15805127 -0.36126003 0.015052501 0.18815626 0.12794626 -0.22578752 -0.12794626 0.09031501
-0.09031501 0.06773625 -0.24084002 -0.12042001 -0.270945 0.0752625 -0.30105 0.060210004
-0.25589252 0.03763125 0.14299875 0.150525 -0.18815626 -0.17310376 0.08278876 -0.37631252
-0.030105002 0.21073502 0.10536751 0.17310376 0.045157503 0.0075262506 0.16557752 -0.150525
0.09031501 0.21073502 -0.18815626 -0.4289963 0.052683756 -0.24084002 -0.14299875 -0.31610253
0.14299875 -0.21826127 -0.48920628 -0.27847126 -0.37631252 -0.15805127 -0.34620753 0.10536751
0.0075262506 -0.0752625 -0.51178503 0.09031501 -0.37631252 -0.18063001 0.08278876 0.0752625
-0.1354725 -0.40641752 0.11289376 0.03763125 -0.30105 -0.35373378 -0.38383877 -0.33868128
-0.030105002 -0.11289376 0.060210004 0.052683756 -0.29352376 -0.39136502 -0.14299875 0.12794626
00000000: bf00 dec0 e1e4 0b00 18bc caf0 2212 dae5
00000010: c1fa 12d4 0cd0 120c e0ca ea1e 191c 07c6
00000020: b1f5 13c7 e39b 1d0e e5a6 0cd8 f6ce 17e1
00000030: 0ff8 dcf1 13e0 1f1b dad6 1dec cbca e6fe
00000040: 0b10 ec15 1e03 df08 e31f a3e0 02df 1df4
00000050: 9f0c acd8 020c b200 07d3 cbfd a814 efe0
00000060: df04 fe02 f20e 0eae 07bc ebf2 15f5 c1cb
00000070: 0209 12dd 201a b515 def2 07b6 1bf0 a7cc
00000080: 0e09 ea11 fee5 0e8e ef17 140e f8ff 0d09
00000090: c81a 0c16 e8e8 ebf4 f0ba ecd3 0dc7 1912
000000a0: dcd2 e50a d412 dfdf 0d07 14eb f3c9 efe8
000000b0: ca00 06ec 0601 e6fe ebd0 0219 11e2 ef0c
000000c0: f409 e0f0 dc0a d808 de05 1314 e7e9 0bce
000000d0: fc1c 0e17 0601 16ec 0c1c e7c7 07e0 edd6
000000e0: 13e3 bfdb ceeb d20e 01f6 bc0c cee8 0b0a
000000f0: eeca 0f05 d8d1 cdd3 fcf1 0807 d9cc ed11
